model/model.pt (torch, 18460 bytes, 9 tensors)

lstm.weight_ih_l0 f4 [64, 8]
0	0xbffb0084	-1.9609532
1	0x3ed29d2d	0.4113554
2	0xbf988136	-1.1914432
3	0x407187b2	3.7739072
4	0xbfc16b40	-1.5110855
5	0x40c551fa	6.166257
6	0xbf1a88bf	-0.6036491
7	0xc08a3942	-4.3194895
8	0x4040186b	3.0014904
9	0xc0016355	-2.0216877
10	0x3f4cb884	0.7996905
11	0xc0200ebb	-2.500899
12	0xc01d6179	-2.4590743
13	0x3c8203a4	0.015870877
14	0xc0174463	-2.363549
15	0x4070d10f	3.76276
16	0xbe24ea79	-0.16105069
17	0x3f927622	1.1442301
18	0xbec49c7c	-0.38400638
19	0xbf0b0929	-0.5431085
20	0x3f1e8915	0.6192792
21	0x3ee6ddd3	0.45091113
22	0x3fb4bf09	1.4120799
23	0x3f1b5688	0.6067891
24	0x4086c0ff	4.211059
25	0xbf56c621	-0.8389607
26	0x3f260f55	0.64867145
27	0xbf801bbb	-1.0008463
28	0x40926d93	4.5758758
29	0x3fa37fcf	1.2773379
30	0x3fe6632b	1.7999014
31	0xbfe7cbfc	-1.8109126
32	0xc0279165	-2.6182492
33	0x40c1257d	6.035826
34	0xc000e7c7	-2.0141466
35	0x402d22e7	2.7052553
36	0x3fac4978	1.3459921
37	0x3f47e478	0.7808299
38	0x3e1fd53a	0.15608683
39	0xbfaec003	-1.3652347
40	0xc01feaf0	-2.4987144
41	0xbfde3db9	-1.7362586
42	0x3f9f5bf9	1.2449943
43	0x3f5da9e2	0.86587346
44	0xbf0bac33	-0.5455963
45	0x3fb31be4	1.3992887
46	0x3f3b87a6	0.7325386
47	0x3fc9281f	1.5715369
48	0x3f4e4ec4	0.80588937
49	0x3f0d1b59	0.55119854
50	0x3f7744bf	0.96589273
51	0xbf98c18a	-1.1934063
52	0x3f9db7e5	1.2321745
53	0x3fa1129c	1.2583804
54	0x403a0f40	2.9071808
55	0xc0b8cc26	-5.7749205
56	0x3fadf75d	1.3591114
57	0x3ee7af1b	0.45250782
58	0xc024c72d	-2.5746567
59	0xc01b59f9	-2.4273665
60	0x402b723f	2.678848
61	0x3f025253	0.50906867
62	0x3ec42653	0.3831049
63	0xbf84d1a2	-1.0376475
64	0x3fca4fb8	1.5805578
65	0x3f450c23	0.76971644
66	0xbf90e6be	-1.1320417
67	0xbe6ee43c	-0.23329252
68	0xbec19ca2	-0.37814814
69	0x410619dd	8.381314
70	0x3e134a83	0.14383893
71	0xc0868a0f	-4.204353
72	0x3f16739b	0.5877015
73	0x408db1ab	4.427938
74	0xbf2232bf	-0.6335868
75	0x39d40d28	0.00040445593
76	0xbedfc264	-0.43702996
77	0x3fd115d0	1.6334782
78	0xbf043418	-0.5164199
79	0x405adaa2	3.4195943
80	0x405bc05a	3.4336152
81	0xc0030756	-2.0473228
82	0xc0183c36	-2.378675
83	0x3f462b46	0.7740978
84	0x3fbc3a70	1.4705334
85	0xc050127e	-3.2511287
86	0x40272749	2.6117728
87	0x4085fd30	4.1871567
88	0xbfabb705	-1.3415228
89	0x401e048c	2.4690275
90	0xbe2f380b	-0.17111222
91	0x4083ce18	4.118908
92	0xc028ffe5	-2.6406186
93	0xbfa761d9	-1.3076736
94	0x3eaeef7b	0.34167084
95	0xbffa1b66	-1.9539611
96	0x3ffd1325	1.9771467
97	0xc006f26d	-2.1085465
98	0xc0104153	-2.253987
99	0xbf7e6697	-0.9937529
100	0xc05f8bd0	-3.4929085
101	0x3f39cdf0	0.7257986
102	0xbe9b25ee	-0.30302376
103	0xbfc86e5e	-1.5658681
104	0xbf0ec620	-0.55771065
105	0x40a638de	5.194442
106	0xc02580ec	-2.5859938
107	0x3fdd7584	1.7301488
108	0xbee5ce2b	-0.44883856
109	0x4067ef1d	3.6239693
110	0xbfc9cb3c	-1.5765147
111	0x3eeb4048	0.4594748
112	0xbf478d0e	-0.7794961
113	0xc1173bdf	-9.452117
114	0xbe62bf3c	-0.22143263
115	0xbe84f517	-0.2596824
116	0x40159ed7	2.3378198
117	0x402af579	2.6712325
118	0xbb42ffdc	-0.0029754555
119	0xc0286d74	-2.6316805
120	0x403692fe	2.8527217
121	0xc0039704	-2.0560923
122	0xbfd78577	-1.6837605
123	0x40658062	3.5859609
124	0xbe8332e2	-0.25624758
125	0xc04e3b4c	-3.2223692
126	0x402d18bd	2.704635
127	0x4089eb9e	4.310012
128	0xc0403ec6	-3.0038314
129	0x3f0a7b62	0.5409452
130	0xbf615ef3	-0.88035506
131	0xbe2d32f3	-0.16913967
132	0xbfd2a048	-1.6455164
133	0x3dd452ab	0.1036733
134	0x3f4645fc	0.7745054
135	0xc02fa7d5	-2.7446187
136	0x404b19be	3.1734462
137	0xc01393e1	-2.3059008
138	0xc03b0147	-2.921953
139	0xbaa0d264	-0.0012269733
140	0xc08f4b8f	-4.4779735
141	0xbf30f344	-0.69121194
142	0x4080e577	4.028011
143	0x3f0085b4	0.50204015
144	0x40339413	2.8059127
145	0xbca81f44	-0.020522721
146	0x3fb6c897	1.4279965
147	0x40687bab	3.632548
148	0xbf7b94df	-0.98274034
149	0xbf81e551	-1.0148107
150	0xbef107cb	-0.47076258
151	0x3fa04f56	1.2524211
152	0xc0220d84	-2.532075
153	0x4022a48f	2.5412939
154	0x3ed6ae39	0.41929796
155	0x40f2b22e	7.5842505
156	0x3f67e7d3	0.9058811
157	0x4053555d	3.3020852
158	0x3f77cca7	0.9679665
159	0x3fd57d0c	1.6678786
160	0x40126efb	2.2880237
161	0x3fdc15cb	1.7194151
162	0x3fe6cbeb	1.8030981
163	0x401342d5	2.300954
164	0x3f87f360	1.0621147
165	0x40968e1b	4.704847
166	0x405bcf63	3.4345329
167	0xbf0312c1	-0.5120049
168	0x407d7ad4	3.9606218
169	0x404c2417	3.1897027
170	0x3fed8e76	1.8559101
171	0x3f957037	1.167487
172	0x3fa8014b	1.3125395
173	0xbe1e49a6	-0.15457782
174	0xbf913072	-1.1342909
175	0xc049c5e8	-3.1527042
176	0x3f49ecb6	0.7887682
177	0x3e82760b	0.25480685
178	0xc0071f59	-2.1112883
179	0xbfe95ddb	-1.8231767
180	0xbffbb229	-1.9663745
181	0xbf93dbcd	-1.1551453
182	0x3f4771c3	0.7790796
183	0xc0d47564	-6.63933
184	0x4084c36f	4.1488566
185	0xbed94832	-0.42437893
186	0x4092d755	4.5887856
187	0x40184e50	2.3797798
188	0x4068734e	3.6320376
189	0xc0561d23	-3.3455284
190	0xbfc24c95	-1.5179621
191	0xbeb73c8a	-0.35788375
192	0x3ff0abdc	1.8802447
193	0xc014b185	-2.323335
194	0xc0372711	-2.8617594
195	0xc0807776	-4.0145826
196	0x4090aee2	4.521348
197	0xbe2eb72c	-0.17062062
198	0x3d0da2db	0.03457914
199	0x3ea6c968	0.32575536
200	0x40ad0f32	5.408105
201	0x40872dcf	4.224342
202	0xc04142e9	-3.0197089
203	0x3ee52c85	0.44760528
204	0xbf8294ea	-1.0201695
205	0xc00340d7	-2.0508325
206	0x3fbcfafc	1.4764094
207	0xbf6d0297	-0.92582077
208	0x3f948829	1.1604053
209	0x3f58117d	0.84401685
210	0x3eb657f8	0.3561399
211	0x408cca2d	4.3996797
212	0x3fb6b25c	1.4273181
213	0xc0371b9f	-2.8610609
214	0xbbb6b525	-0.0055757933
215	0x3fe09ccb	1.754785
216	0x3f424759	0.7589012
217	0xc049a427	-3.150644
218	0xbfb371f9	-1.4019157
219	0xc0516de6	-3.2723327
220	0x4009739f	2.147682
221	0xbf1ec8ca	-0.6202513
222	0xbe8d1bbd	-0.27560225
223	0xbff8aa35	-1.9426943
224	0x407e9d2e	3.9783435
225	0xbfaa1e23	-1.3290447
226	0x3f51034b	0.8164565
227	0xc011d3d3	-2.2785537
228	0xbfe35983	-1.7761692
229	0xbf5cd526	-0.8626274
230	0xbfe6d7d4	-1.8034616
231	0xc08c2e34	-4.38064
232	0x402f78b4	2.7417421
233	0x40f090db	7.5176826
234	0x3fb11ce3	1.383694
235	0x404a23ef	3.1584432
236	0xc03af764	-2.9213495
237	0x3f6d0b79	0.9259563
238	0xbfbc1707	-1.4694527
239	0x4040779a	3.0073
240	0xc04c356e	-3.190761
241	0x400637e7	2.097162
242	0x3eaceca1	0.33774284
243	0x3eca1826	0.3947155
244	0x3e8d31dc	0.27577102
245	0x402c35ad	2.690776
246	0x3f56e83f	0.8394813
247	0xc041ca81	-3.0279849
248	0x40bace81	5.837708
249	0x40396003	2.896485
250	0x40904280	4.5081177
251	0x3f2e7796	0.68151224
252	0x3ee15aba	0.4401453
253	0xbf4e52d5	-0.8059514
254	0xbee4743d	-0.44619933
255	0x403d6470	2.9592552

lstm.weight_hh_l0 f4 [64, 16]
0	0xbf7845d3	-0.96981543
1	0x400f8691	2.2425883
2	0x407d2618	3.95545
3	0xbf81525e	-1.0103261
4	0xbfb7d0c9	-1.4360591
5	0x4000c7ff	2.0122068
6	0xc0a2adfd	-5.083739
7	0x3eb9fa41	0.3632374
8	0x40873be8	4.226063
9	0x401e0f19	2.4696715
10	0x3fc2538a	1.5181744
11	0x3e3d9087	0.18512164
12	0xc0e27b86	-7.0775785
13	0xbf23c17e	-0.6396712
14	0xbfe4f512	-1.788729
15	0x3efc9d39	0.493387
16	0xbea70ea1	-0.32628348
17	0xbfd31e8c	-1.6493697
18	0x3d428e54	0.047499016
19	0xbf299666	-0.66245115
20	0xbf8ff563	-1.1246761
21	0xbf9a0f3a	-1.2035897
22	0xbf835899	-1.0261413
23	0x3de99025	0.114044465
24	0x3f9646b6	1.1740329
25	0xbf836a73	-1.0266861
26	0x3fb4b094	1.4116387
27	0x3f1dfb4c	0.61711574
28	0xbfebc7f0	-1.8420391
29	0xbfc89134	-1.5669312
30	0x4027c399	2.6213133
31	0x4086f79e	4.2177267
32	0xbe9bde3f	-0.30442998
33	0xc0402368	-3.002161
34	0x3fc8f49c	1.5699649
35	0x3fa83f4a	1.3144314
36	0xbded0707	-0.11573606
37	0xbfa3bcd0	-1.2791996
38	0x3f80251c	1.0011325
39	0xbf927116	-1.1440761
40	0xc0005f6a	-2.0058236
41	0x403a5727	2.9115694
42	0xc09cb681	-4.8972783
43	0x3de0c19d	0.10974429
44	0x400fe090	2.2480812
45	0xbfce26ee	-1.610563
46	0xbfbc5fb0	-1.4716702
47	0x3fd1bf64	1.6386533
48	0xc0717447	-3.772722
49	0xbff6e585	-1.9288794
50	0xbf64aeca	-0.89329207
51	0xbfd4ff20	-1.6640358
52	0xc008be26	-2.1366057
53	0xc0497631	-3.1478388
54	0xc05c8846	-3.4458175
55	0x402ae5c4	2.6702738
56	0x3f77d2a7	0.96805805
57	0xbe19d793	-0.15023641
58	0x4040f1de	3.0147624
59	0x406f0515	3.7346852
60	0xc0282298	-2.6271114
61	0xc0258a5b	-2.5865695
62	0xc05f83f6	-3.4924293
63	0xc020fd1e	-2.515449
64	0xbf8a40d1	-1.080103
65	0xbf825357	-1.0181683
66	0x3f65aeb4	0.897197
67	0xc0159e20	-2.3377762
68	0x3fbaa094	1.4580255
69	0x3fa6a87a	1.3020165
70	0x3f81fe7e	1.015579
71	0xbfa4bebd	-1.2870709
72	0x405d5e7a	3.4588914
73	0xc00cfee8	-2.2030582
74	0xbfcc62fa	-1.5967705
75	0x3f2a0527	0.6641411
76	0x3f57a0a9	0.8422952
77	0x3ed61ee1	0.41820434
78	0x408e5ab8	4.448574
79	0x40bbd755	5.8700356
80	0xbffc396c	-1.9705024
81	0xbfa65746	-1.2995384
82	0x3ec0c3a7	0.3764927
83	0x3f06fe4a	0.52731764
84	0x3f9f90de	1.2466085
85	0xbfde04ba	-1.7345192
86	0x3fd2d812	1.647219
87	0xbf72ec0f	-0.94891447
88	0xc010babe	-2.2613978
89	0xbf895bc6	-1.0731132
90	0x3e957721	0.2919245
91	0xbf8be223	-1.0928386
92	0x406b8a24	3.6803064
93	0x3fac1473	1.3443741
94	0xbebced67	-0.36899874
95	0xbf0d9474	-0.55304646
96	0x3fd90820	1.6955605
97	0x3faeff42	1.3671649
98	0x3f728372	0.9473182
99	0x401b5a1b	2.4273746
100	0xc0118f7b	-2.2743824
101	0x40926720	4.5750885
102	0x407a9713	3.9154708
103	0x4035912f	2.8369863
104	0x3f62415b	0.88380975
105	0x3fac0dc3	1.34417
106	0xc0185d3a	-2.38069
107	0x407e44c4	3.9729471
108	0x3ed1585f	0.40887734
109	0x3e730ac9	0.23734583
110	0xbfd96cf7	-1.6986378
111	0x3ff6ccaf	1.9281214
112	0x40a0ece5	5.028918
113	0x408c47a7	4.3837466
114	0x3ffc908b	1.9731611
115	0xc085c8fe	-4.180785
116	0x3e413079	0.18866147
117	0xbffec067	-1.9902467
118	0xc0fe95c2	-7.955781
119	0xc02cbef9	-2.699156
120	0x3ffeb826	1.9899948
121	0x40416950	3.0220528
122	0xbffe6d1a	-1.9877045
123	0x40998c34	4.7983646
124	0x3f97c8a2	1.1858103
125	0x3d802b38	0.06258243
126	0x4080cb59	4.0248227
127	0x3fb3bb11	1.4041463
128	0xbffc333c	-1.9703135
129	0xc05f4996	-3.4888663
130	0xbfab847f	-1.339981
131	0x3fe26dac	1.7689719
132	0xbce69c68	-0.028150752
133	0xbe96cce5	-0.29453197
134	0xbf96011a	-1.1719086
135	0xc0a5a6de	-5.1766195
136	0xc0333c59	-2.8005583
137	0xbcf9d53a	-0.030497182
138	0x3fdc4aae	1.721029
139	0x4032ecc9	2.7957022
140	0xbe951a7f	-0.29121777
141	0x401e2734	2.4711428
142	0xc01dd8fc	-2.4663687
143	0xc002fe1b	-2.0467594
144	0xbffc0bc5	-1.9691092
145	0x401a6bd2	2.4128308
146	0x3dd29f84	0.102843314
147	0x3fcd05db	1.6017412
148	0xc00ddd22	-2.2166219
149	0x3ff04b34	1.877295
150	0x3f391a90	0.72306156
151	0xc045ec4f	-3.0925481
152	0xc02a9904	-2.6655893
153	0xc08afde7	-4.343494
154	0xc07bb7cf	-3.9330938
155	0xbf5328bc	-0.8248403
156	0xbc2b8a54	-0.010469992
157	0x406f3fa8	3.7382603
158	0x40117480	2.2727356
159	0x3f15bc74	0.5849068
160	0x3fb5149e	1.4146917
161	0xbef4e035	-0.47827306
162	0x4082781b	4.0771613
163	0x3ffd7053	1.9799904
164	0x40800e1c	4.0017223
165	0xbffe289b	-1.9856142
166	0x3f8e9e0b	1.1141981
167	0x3f0f827f	0.56058496
168	0xc0352d44	-2.8308878
169	0x404541b7	3.082136
170	0x3f156fec	0.58373904
171	0x3f883df2	1.0643904
172	0x400b21d5	2.17394
173	0x3f46e321	0.7769032
174	0xbfb633c6	-1.423455
175	0xbe07f547	-0.1327716
176	0xbbfe8cfd	-0.007768272
177	0x3eb90c95	0.36142412
178	0xbf876d4c	-1.058023
179	0xc0047b28	-2.0700169
180	0xc00cc5ae	-2.1995654
181	0x3f8080b5	1.0039278
182	0xc081764a	-4.0456896
183	0xbe777b76	-0.2416819
184	0x3f835c0b	1.0262464
185	0x4083d6f7	4.119991
186	0xc040039d	-3.0002205
187	0xbfc696a1	-1.5514718
188	0xc0118478	-2.2737103
189	0xbfbc5e29	-1.4716235
190	0xbf844759	-1.0334274
191	0x3fdcce35	1.7250429
192	0xbd7aa4c5	-0.061192293
193	0x3f4b328e	0.79374015
194	0xc072b384	-3.7922068
195	0x3f6ab6e1	0.916853
196	0x408584a4	4.1724415
197	0x407d43de	3.9572673
198	0xbf3937f7	-0.7235102
199	0xbfc7c0ba	-1.560569
200	0x402093ec	2.5090284
201	0xc03180ab	-2.7734783
202	0xc047cb7d	-3.121795
203	0xc052b09e	-3.2920299
204	0x40782ab6	3.8776069
205	0xc01e6068	-2.4746342
206	0xbfb5d466	-1.4205444
207	0xbfc14f07	-1.5102242
208	0xbf3b5255	-0.73172504
209	0xc07a9af8	-3.9157085
210	0x4001fbaf	2.0309865
211	0x3f3111a8	0.69167566
212	0xbf30b77d	-0.6902998
213	0xbefc8ed8	-0.4932773
214	0x40c4b11d	6.1466203
215	0xc041c2af	-3.0275075
216	0xc0941917	-4.6280627
217	0xc02f805b	-2.7422092
218	0xbf97eaf0	-1.1868572
219	0xc00a3dd5	-2.160024
220	0x4020d5fc	2.5130606
221	0x400bc3cb	2.1838253
222	0x40231a50	2.548481
223	0xc086872a	-4.2039995
224	0x3fa4b58c	1.2867904
225	0x40b8019e	5.7501974
226	0xc0240aba	-2.5631547
227	0x3e29499a	0.16531983
228	0x3fff4f4c	1.9946074
229	0xbf51f768	-0.82018137
230	0xc01b56a8	-2.427164
231	0xbe6b7b46	-0.22996244
232	0x4074ef9e	3.827125
233	0xbfd5318d	-1.6655747
234	0x401d96be	2.4623256
235	0x3fc9f6f9	1.5778495
236	0x401ed992	2.4820294
237	0x3f7917ac	0.97301745
238	0x3ece33f2	0.40274006
239	0xbf85c36a	-1.0450261
240	0x3f98e0c0	1.1943588
241	0x3fa6d52b	1.3033804
242	0x3fa3ce61	1.2797357
243	0x3ff7fb6a	1.93736
244	0x3fad5ccb	1.3543943
245	0x3f21a111	0.6313639
246	0xbf900b8b	-1.1253523
247	0xc01441b8	-2.3165112
248	0xc0119b46	-2.2751021
249	0xc082033e	-4.062896
250	0xc0b6e30b	-5.715215
251	0xbf7fc8d9	-0.99915844
252	0xbf103377	-0.5632853
253	0xbf1d1068	-0.6135316
254	0x40200383	2.5002143
255	0x3f81e549	1.0148097

lstm.bias_ih_l0 f4 [64]
0	0xbf76a02f	-0.9633817
1	0xc00b4959	-2.1763518
2	0x3f182011	0.5942393
3	0xbf1823e6	-0.59429777
4	0xbf07645c	-0.5288751
5	0x40011e1b	2.0174625
6	0xbe8e5645	-0.27800193
7	0x3f5bf915	0.85926944
8	0xbe68358a	-0.22676674
9	0x3e77449b	0.24147265
10	0xbdb1ff9d	-0.086913325
11	0xbf67300e	-0.903077
12	0xbfe6eb15	-1.8040491
13	0x3f1ae570	0.60506344
14	0x3e127bdc	0.14305061
15	0xbd7fca9b	-0.06244908
16	0xbfc8db3e	-1.5691907
17	0x3f66e799	0.9019714
18	0xc0073596	-2.1126456
19	0x3f87872b	1.0588125
20	0xc0027ac6	-2.0387435
21	0xbfa8aa7d	-1.3177029
22	0x3fb728d3	1.4309334
23	0xc027a353	-2.6193435
24	0xc01d1c6e	-2.4548602
25	0xbf5a7a16	-0.8534254
26	0x3c22a820	0.009927779
27	0x4056a80c	3.3540068
28	0xbf1e4320	-0.61821175
29	0xbfa6e047	-1.3037194
30	0xbfd8bf6a	-1.6933415
31	0xbf4936e4	-0.7859938
32	0x3eda38d3	0.42621478
33	0x4010764a	2.2572198
34	0xbe9f0668	-0.31059575
35	0xc05add0b	-3.4197414
36	0x3ed450a9	0.4146779
37	0xbfade68b	-1.3585981
38	0xbf5b620c	-0.8569648
39	0x3cf67962	0.030087177
40	0x3fbd9c0e	1.4813249
41	0x40006c8e	2.0066257
42	0x3fa67512	1.3004477
43	0xbecd0855	-0.4004542
44	0xbf962a08	-1.1731577
45	0xbf2accff	-0.6671905
46	0xbe78a00c	-0.24279803
47	0x3fd450b6	1.6587131
48	0xbf866e42	-1.0502398
49	0x3e85e3aa	0.26150256
50	0x3f83a940	1.0286026
51	0x3ea36628	0.31913877
52	0xbf28f580	-0.65999603
53	0x402980e8	2.6484928
54	0xbffb4742	-1.9631121
55	0xbde5eab3	-0.11226406
56	0x3d61aa8c	0.055094287
57	0x3ed1154a	0.40836555
58	0xbf1b956d	-0.6077488
59	0xbeba8e7a	-0.36436826
60	0xbef4ee64	-0.47838128
61	0xbfd7e236	-1.6865909
62	0x3f0212da	0.50810015
63	0xbf76fcb8	-0.9647937

lstm.bias_hh_l0 f4 [64]
0	0xbf6dd6fb	-0.9290616
1	0xc017f8e6	-2.3745666
2	0x3ee10ed5	0.43956628
3	0xbf4b94a9	-0.7952371
4	0xbed6c72d	-0.41948834
5	0x3ffcab3b	1.9739755
6	0xbec2661d	-0.3796853
7	0x3f2712f8	0.6526332
8	0xbe3528d5	-0.17691357
9	0x3df7e9f6	0.121051714
10	0x3c452f74	0.0120352395
11	0xbfa01b85	-1.2508398
12	0xbfc5423f	-1.5410842
13	0x3f5baf62	0.8581449
14	0xbe8ca428	-0.2746899
15	0x3d70baec	0.058772013
16	0xbfd023c4	-1.6260915
17	0x3f7fedb4	0.9997208
18	0xc00d70d6	-2.210012
19	0x3f5f15e0	0.87142754
20	0xc00a4852	-2.160664
21	0xbf66a664	-0.9009764
22	0x3fb57601	1.4176637
23	0xc029ebcf	-2.6550176
24	0xc01efb2d	-2.4840806
25	0xbf5166a2	-0.8179723
26	0xbe5e6e3c	-0.21721739
27	0x4054165a	3.3138642
28	0xbee7e5cc	-0.4529251
29	0xbfab1931	-1.3367063
30	0xbfcd3a76	-1.6033466
31	0xbf4fbe38	-0.81149626
32	0x3ee1c20c	0.4409336
33	0x40158728	2.3363743
34	0xbd84fd1e	-0.06493591
35	0xc0645cd3	-3.5681655
36	0x3eff3059	0.49841574
37	0xbf8bf67d	-1.0934597
38	0xbed3d63d	-0.41374388
39	0x3da248ed	0.07924066
40	0x3fa170f8	1.26126
41	0x3fe891d4	1.8169503
42	0x3f96a7a7	1.1769913
43	0xbeae0ca2	-0.33994013
44	0xbf9b8e30	-1.2152767
45	0xbf30ec67	-0.6911072
46	0xbe909223	-0.28236493
47	0x3f9fe8e2	1.2492945
48	0xbf31b20c	-0.694123
49	0x3c9bbc8e	0.019010808
50	0x3f95ad17	1.1693448
51	0x3d21b876	0.039482556
52	0xbf30966a	-0.68979514
53	0x40245bbc	2.568099
54	0xbfe4cff4	-1.7875962
55	0x3eba73d2	0.3641649
56	0xbe4c3cb2	-0.19945028
57	0x3efbf5d4	0.4921099
58	0xbf38f32a	-0.7224604
59	0xbec16bc0	-0.3777752
60	0xbe811a17	-0.25215217
61	0xbfe2e172	-1.772505
62	0x3e0d66b4	0.1380871
63	0xbf899345	-1.0748068

lstm.weight_ih_l1 f4 [64, 16]
0	0xbfff6d41	-1.9955217
1	0xc08c4d40	-4.38443
2	0x3eb76c5f	0.35824868
3	0xc02ed6eb	-2.7318676
4	0xbfe04f3e	-1.7524183
5	0xbf998f71	-1.19969
6	0xbd674c1a	-0.05646906
7	0xbdcb2d70	-0.09920776
8	0x400b47aa	2.176249
9	0x40c5af8c	6.177679
10	0x3f4b6369	0.7944856
11	0x3f29c4c2	0.66315854
12	0x3e6b4ffa	0.22979727
13	0xc049510f	-3.1455724
14	0x3fd8ff9f	1.6953009
15	0xc0909c26	-4.519061
16	0x3ff9aae2	1.9505274
17	0x408a9c34	4.331568
18	0xbf23eade	-0.64030254
19	0x3f47c569	0.780356
20	0x3fc1d8ef	1.5144328
21	0x3fa76e9f	1.3080634
22	0xbefcf0a4	-0.49402344
23	0xbc7af1cb	-0.015316437
24	0xbf345cca	-0.70454085
25	0x401e6a6b	2.4752452
26	0x3fb66f08	1.4252634
27	0xc05b670a	-3.428164
28	0xbe24d1bb	-0.16095631
29	0xbf276a2f	-0.653964
30	0xc023186c	-2.5483656
31	0x3f65b970	0.8973608
32	0x3f90728f	1.128496
33	0x3e0da8ae	0.13833877
34	0x3fabcae9	1.3421298
35	0xc02e3472	-2.721951
36	0x3d52389d	0.051323522
37	0xbfeab0b8	-1.833518
38	0x408631fc	4.1936016
39	0x3ea065f8	0.31327796
40	0xbfe318b6	-1.7741916
41	0x3f0667f7	0.5250239
42	0x40332408	2.7990742
43	0x3fb82424	1.4386029
44	0x3f9378d7	1.1521252
45	0xc0422e17	-3.034063
46	0xbf70a86a	-0.9400698
47	0xbfba652b	-1.4562124
48	0x3fa741bd	1.3066937
49	0x4042abf1	3.0417445
50	0x408eb4e7	4.459583
51	0xbf48b281	-0.78397375
52	0x407c678d	3.9438202
53	0xbd694f1c	-0.05696021
54	0x3f5a3329	0.85234314
55	0xbfa9cf03	-1.32663
56	0xbf45e35b	-0.7730004
57	0xbf88ca1c	-1.0686679
58	0x40347da5	2.8201687
59	0xbf8e3a72	-1.1111586
60	0x3f0d76fb	0.55259675
61	0xbf65297a	-0.89516413
62	0xc0200775	-2.5004551
63	0xc09be5dc	-4.871809
64	0x3f8b5756	1.0886028
65	0xc01ee201	-2.4825442
66	0xc081757a	-4.0455904
67	0xc0615f4a	-3.521441
68	0xbf9238b1	-1.1423551
69	0x3ec67ebb	0.38768563
70	0xbfd7ce81	-1.6859895
71	0x40ff4525	7.9771905
72	0xbdacd966	-0.08439903
73	0xbf91eeda	-1.1401017
74	0x3f2c5aa3	0.673258
75	0xbf30c7d3	-0.6905491
76	0x4007db44	2.122758
77	0xbf58c1a8	-0.84670496
78	0xbdcbcfd2	-0.09951748
79	0xbf2cf869	-0.67566544
80	0x3ffa8c63	1.9574093
81	0x4026397d	2.5972588
82	0xc0ca098d	-6.313666
83	0x3e91f653	0.28508243
84	0x40176990	2.365818
85	0x3fbfec42	1.4993975
86	0xbf66e229	-0.90188843
87	0x3f8f9cdf	1.1219748
88	0x400f36fc	2.237731
89	0x4049b779	3.1518233
90	0xc13355c0	-11.208435
91	0x4033deac	2.8104658
92	0xc021fadc	-2.5309362
93	0xbede4d44	-0.43418324
94	0x3f00318b	0.50075597
95	0x3fb7f16b	1.437055
96	0x3f19aed0	0.6003237
97	0xbe8955d6	-0.268233
98	0x401c6742	2.4438024
99	0xc035ffce	-2.843738
100	0xbefdd704	-0.49578106
101	0x400aca97	2.168615
102	0x40289430	2.6340446
103	0xbe5f35a8	-0.21797812
104	0xbfb4ecec	-1.4134803
105	0x3f3d47e5	0.7393783
106	0x3f6bf905	0.9217685
107	0xbff1a022	-1.8876994
108	0xbf41ffe3	-0.7578108
109	0x404201a1	3.0313494
110	0x405f8ea1	3.4930804
111	0x3f847c83	1.0350498
112	0xc00dfb7f	-2.218475
113	0x403d1c1f	2.9548414
114	0x4055bf1a	3.339789
115	0x4022c0d2	2.5430188
116	0xbe562e30	-0.20916057
117	0xbfd1a622	-1.6378825
118	0xbef9ea89	-0.4881175
119	0x403b27a0	2.9242935
120	0x3f964d67	1.1742371
121	0x40a9a142	5.300935
122	0x40960933	4.688623
123	0x3fa26b6b	1.2689031
124	0xc08cdb80	-4.4017944
125	0xbed80291	-0.42189458
126	0x3ea20146	0.31641597
127	0x405e3bb7	3.4723947
128	0x3ff0e964	1.8821225
129	0x410c8622	8.782747
130	0x3fc76e5e	1.5580556
131	0xbeb06519	-0.3445213
132	0x4033b094	2.8076525
133	0x3dfbc425	0.12293271
134	0x3f1f1870	0.62146664
135	0x3fb4d2fc	1.4126887
136	0x3df04010	0.11730969
137	0x404ab0f5	3.1670506
138	0x400001d4	2.0001116
139	0x401225b4	2.2835512
140	0xc0868574	-4.2037907
141	0x3f8297ed	1.0202614
142	0x3df2b8a0	0.11851621
143	0x3ffadf7e	1.9599454
144	0xbfb448a3	-1.4084667
145	0xbf44b439	-0.768375
146	0xc0083923	-2.1284873
147	0xbed2cc0f	-0.4117131
148	0x3f2974d1	0.6619387
149	0x3e9f1eb2	0.31078106
150	0x3dcdeff2	0.100555316
151	0xbf9f39a7	-1.2439469
152	0xc00a87f7	-2.1645486
153	0x40384d96	2.8797355
154	0xbfa7ebb9	-1.3118812
155	0xbe9fa523	-0.31180677
156	0xc033e932	-2.811108
157	0xc073cb5c	-3.809287
158	0xbff88bbd	-1.9417645
159	0xbf5e0b25	-0.86735755
160	0x3f05cb0f	0.5226297
161	0xc0035871	-2.052273
162	0x3f834c59	1.0257674
163	0xc003c0c8	-2.0586414
164	0xbf09d316	-0.53837717
165	0xbe485405	-0.19563301
166	0xc002571b	-2.0365665
167	0xbf601697	-0.8753447
168	0xbf0b947a	-0.5452343
169	0xbf8f8057	-1.1211041
170	0x403e7574	2.9759188
171	0xc0423524	-3.0344934
172	0xbfbefba4	-1.4920545
173	0xc01f704d	-2.4912293
174	0xbf64dda8	-0.8940072
175	0xbd1d8c1f	-0.038463708
176	0xbf32ad56	-0.6979574
177	0xbf911d12	-1.1336997
178	0x3da579ca	0.0807987
179	0xbf852bec	-1.0404029
180	0xbe66f3ed	-0.22553988
181	0x3f090273	0.5351936
182	0x3fe2d69e	1.7721746
183	0xbfbe74ec	-1.4879432
184	0x3f65dc90	0.89789677
185	0x3fbedd2c	1.4911246
186	0xbeaa496f	-0.3325915
187	0xbff16e82	-1.8861849
188	0xbf91eaf1	-1.1399823
189	0xbec3b5d2	-0.38224655
190	0x3ea04718	0.3130424
191	0x3ff65f3f	1.9247817
192	0x3e2a1b0a	0.16611877
193	0x3fe3cef9	1.7797538
194	0xbff81946	-1.9382713
195	0xbf832526	-1.0245712
196	0x3fee6d72	1.862715
197	0xbe004f81	-0.12530328
198	0x3f78ba68	0.97159433
199	0xbf6af4b7	-0.91779655
200	0xbfbccf3d	-1.4750744
201	0x4082008e	4.0625677
202	0x3fab1bd8	1.3367872
203	0x3f2812f9	0.6565395
204	0x3e0931fc	0.13397974
205	0x4031cfa8	2.7782993
206	0xbf85e581	-1.0460664
207	0x3fa2fabc	1.2732768
208	0x3f9a8685	1.2072302
209	0x3fd2750f	1.6441973
210	0x3f6e17b6	0.9300493
211	0xbf9b1be0	-1.2117882
212	0x3f3d9a95	0.74064
213	0xbf87d238	-1.0611029
214	0x3fdd0d50	1.7269688
215	0x3f74edca	0.9567534
216	0xc003227b	-2.0489795
217	0x40ae494c	5.4464474
218	0x3fb6b349	1.4273463
219	0xbfcc1658	-1.5944319
220	0xbfaf0bbe	-1.3675458
221	0xbd3791f6	-0.044816934
222	0x402e64fc	2.7249136
223	0x403b4dcd	2.9266236
224	0x3f6ee95a	0.93324816
225	0x3f270e4e	0.652562
226	0x3f319326	0.69365156
227	0xbf495f33	-0.7866089
228	0x3ec641d4	0.38722098
229	0xbece8d87	-0.40342352
230	0x3f11cbef	0.569518
231	0xbf12ab0d	-0.5729225
232	0xbf60db82	-0.8783494
233	0x3f9af704	1.2106633
234	0xc024d44c	-2.5754576
235	0x3ef100bd	0.47070876
236	0xc022ca68	-2.543604
237	0xbef7f9b5	-0.484327
238	0xbd622f60	-0.05522096
239	0xbecb2598	-0.3967712
240	0x3f749891	0.955453
241	0x3f828df9	1.0199577
242	0x3f1886cb	0.5958068
243	0x3f3cea1d	0.7379473
244	0x415d2eee	13.823957
245	0x3fa94395	1.3223749
246	0x4063e27a	3.560698
247	0xc0172d6b	-2.362147
248	0xc097c5e6	-4.7429075
249	0x404c546d	3.192653
250	0xc0e97b7a	-7.296323
251	0xc089830d	-4.2972474
252	0x3fe17d96	1.7616451
253	0x3f6bbc39	0.9208408
254	0xbf19a6c2	-0.6002008
255	0xbfd9d5c5	-1.7018362

lstm.weight_hh_l1 f4 [64, 16]
0	0x3fd01b65	1.625836
1	0xbd8df420	-0.06931329
2	0x4018d433	2.3879516
3	0xbf84e3d4	-1.0382028
4	0xbfd7f453	-1.6871437
5	0xbdc8845f	-0.09790873
6	0x3f80aa4d	1.0051972
7	0xc0502424	-3.2522058
8	0xbf9f8463	-1.2462276
9	0xc042995b	-3.04061
10	0xbf902376	-1.1260822
11	0xc104f5e7	-8.310035
12	0x3f4aa57c	0.7915876
13	0x3e59cfbb	0.21270649
14	0x40085ea8	2.1307774
15	0x4059c1ec	3.402461
16	0x3f7ff4a8	0.9998269
17	0x3ff46aa5	1.9095045
18	0x40434798	3.0512447
19	0xc026524f	-2.5987737
20	0xc0830b4d	-4.0951295
21	0x407e39da	3.972281
22	0x3ed3eca0	0.41391468
23	0x3f120504	0.57038903
24	0xbfe00318	-1.7500944
25	0xc0fe7b52	-7.9525537
26	0x3eba5308	0.36391473
27	0xbf722c20	-0.9459858
28	0xbdd37a57	-0.10326069
29	0xc0144b58	-2.3170986
30	0x4085f124	4.185686
31	0xc0756e95	-3.8348744
32	0x40878c8c	4.2359066
33	0x40186503	2.3811653
34	0xbf9e8089	-1.2382976
35	0xc0c63a0a	-6.194585
36	0xc08d4ead	-4.415854
37	0x407d323c	3.956191
38	0xbfd65105	-1.6743475
39	0x407f0675	3.984769
40	0xc01b9a2e	-2.4312854
41	0xc06d83a0	-3.7111588
42	0xc00134a3	-2.0188377
43	0xc02bb567	-2.682947
44	0xbf6a0ae3	-0.9142286
45	0x40db29a2	6.848832
46	0x40b5faea	5.686879
47	0x408873f6	4.2641554
48	0xbef030c1	-0.46912196
49	0xbc280ae3	-0.010256502
50	0x3ead1d95	0.33811632
51	0x4014b2c4	2.323411
52	0xc04eae84	-3.2294016
53	0x402b8088	2.67972
54	0x3f6383b4	0.8887284
55	0x3fbc1539	1.4693977
56	0xbee51d81	-0.44749072
57	0xc02a3468	-2.6594486
58	0xbf9ff0f4	-1.2495408
59	0xc06d0ae7	-3.7037904
60	0xbec85850	-0.39129877
61	0xbfa1520f	-1.2603167
62	0x3fcba308	1.5909128
63	0xc05ae9eb	-3.4205272
64	0x40b7b895	5.741282
65	0x40639baa	3.556376
66	0x3e6f65b0	0.23378634
67	0xbf6fc0b8	-0.9365344
68	0xc02eb94f	-2.7300603
69	0x409e5bf1	4.9487233
70	0x3f1a3eb9	0.6025196
71	0xbfc77a2f	-1.5584162
72	0x3f77530c	0.96611094
73	0xbfe096db	-1.7546037
74	0xbf95645f	-1.1671256
75	0xc02ce313	-2.7013595
76	0xbfd5056d	-1.6642281
77	0x40011f2a	2.017527
78	0xc0140c80	-2.313263
79	0x4078982e	3.8842883
80	0x3fd85b36	1.6902835
81	0xbe0c8c10	-0.13725305
82	0xbf06d6d0	-0.5267153
83	0xbefe50dd	-0.4967107
84	0x3f6ce6bf	0.9253959
85	0xbe9eee31	-0.310411
86	0xc01c0ad0	-2.43816
87	0xbef92d87	-0.48667547
88	0x3fa50ff8	1.2895498
89	0xbfeecf78	-1.8657064
90	0xc0634157	-3.550863
91	0xbe8fae65	-0.2806274
92	0x3f3b3cfb	0.73139924
93	0xbe88e338	-0.26735854
94	0x3f14e0e5	0.5815566
95	0x40797191	3.8975565
96	0xbec8f746	-0.39251155
97	0x4069275e	3.6430278
98	0x408045a2	4.0085
99	0xbf7056e9	-0.93882614
100	0x3ebc97a6	0.3683445
101	0x4012872d	2.2895005
102	0xc0a6cc12	-5.212411
103	0x3e8fc37d	0.28078833
104	0xbf281682	-0.65659344
105	0xc012eb73	-2.2956207
106	0xc0256b19	-2.5846617
107	0x402689d0	2.6021614
108	0xbf994e8c	-1.1977096
109	0x402676c1	2.6009982
110	0x3fbcf21f	1.476139
111	0xbf4b7501	-0.7947541
112	0xbedc9d38	-0.43088698
113	0x408fe0e0	4.4962006
114	0x3fc615f8	1.5475454
115	0xbee1899a	-0.44050294
116	0xc005d7f9	-2.091307
117	0x402f5c72	2.7400174
118	0x3f04b68f	0.5184106
119	0xbfc39f43	-1.5282978
120	0xbf911ccb	-1.1336912
121	0xbfef5f49	-1.8700954
122	0xc04058e1	-3.0054247
123	0xc0f6240b	-7.6919
124	0xc072411f	-3.7852247
125	0x3e8f337c	0.27968967
126	0x3f0e1727	0.5550408
127	0x3f8ee45f	1.1163443
128	0x40471c68	3.1111088
129	0x3f36e813	0.7144787
130	0xbb2befb6	-0.0026235408
131	0xbfc70ba4	-1.5550427
132	0x3fab7c37	1.3397282
133	0x40076bca	2.115954
134	0xc16c8ba0	-14.784088
135	0x4025c172	2.589932
136	0xbb9c29e0	-0.004765734
137	0x3f902dc3	1.1263965
138	0xbf24c11c	-0.6435716
139	0x40969a7a	4.706357
140	0xbf0a7cca	-0.54096663
141	0xbf23b3ba	-0.63946116
142	0x3fcd7e88	1.6054239
143	0xc02914bd	-2.6418908
144	0x3fae6c84	1.3626866
145	0xbd16fcf4	-0.03686233
146	0x3fa20bf4	1.2659898
147	0x3f91fb64	1.1404843
148	0xc00697dd	-2.103019
149	0xbfb7096d	-1.4299752
150	0xbe8005ce	-0.2500443
151	0xbed7cd02	-0.42148596
152	0x3f40b109	0.75270134
153	0xbfd0face	-1.632654
154	0xbf942491	-1.1573659
155	0x3f9c3d52	1.2206213
156	0x3e0b7c06	0.1362153
157	0xbf37f195	-0.71853
158	0xbee7cf2c	-0.45275247
159	0x4037b6ab	2.8705242
160	0xbfa8b7c0	-1.3181076
161	0x4058f849	3.3901541
162	0x3f7af80d	0.98034745
163	0x3f792a45	0.97330123
164	0x3f7056ed	0.9388264
165	0xbf92b644	-1.1461873
166	0xc094a1bb	-4.6447425
167	0x404a0510	3.156559
168	0x3f9510d4	1.164576
169	0x3dec21f4	0.115299135
170	0x403ef157	2.9834802
171	0xc023735b	-2.5539157
172	0xbff7a016	-1.9345729
173	0x3f33334c	0.7000015
174	0xbf21156e	-0.62923324
175	0xc0345c45	-2.8181317
176	0xc077b6a6	-3.870523
177	0xbfb5e5d1	-1.4210759
178	0xc02d1cd6	-2.704885
179	0x4025b3fb	2.5891101
180	0x3fea001e	1.8281286
181	0x3fcdf0ec	1.6089149
182	0x3e3cf71e	0.18453643
183	0xbf18fbba	-0.59759104
184	0x3fd18bda	1.6370804
185	0x3fbb4fac	1.4633689
186	0xbf1da42d	-0.6157864
187	0xbfaf438b	-1.3692487
188	0x400eef46	2.233354
189	0x3fdfb63d	1.747749
190	0x402c4540	2.6917267
191	0xc07fd573	-3.997403
192	0xbfcb38c7	-1.5876702
193	0x3fd10d2d	1.6332146
194	0xc08b4450	-4.352089
195	0x402cfb3d	2.7028344
196	0xbf52e3db	-0.8237893
197	0x405952ce	3.395679
198	0x3fbac766	1.4592102
199	0xbf680a85	-0.9064105
200	0xc052293c	-3.2837667
201	0xbf6aef4d	-0.91771394
202	0x3f88cc89	1.0687419
203	0x403747d7	2.8637598
204	0xc0671837	-3.610853
205	0xc03a2b8d	-2.9089081
206	0x405a2d16	3.4090018
207	0xc005ecb6	-2.0925727
208	0xc07c7723	-3.9447715
209	0x4025166a	2.579493
210	0xc090755f	-4.5143275
211	0xc0c4793f	-6.1398005
212	0xbfe4ed39	-1.7884895
213	0x3fba97ef	1.4577616
214	0xc01e0bb8	-2.4694653
215	0x3f8899ca	1.0671933
216	0xc022d161	-2.5440295
217	0x3fe2edea	1.7728856
218	0xbee5f35b	-0.44912228
219	0x3d871d71	0.065974124
220	0xbf9b3bc6	-1.2127616
221	0x403d67b5	2.9594548
222	0x3f05d81f	0.522829
223	0x40084a9d	2.129554
224	0x3ff2f114	1.8979821
225	0xc00bc7a9	-2.1840613
226	0xbfaf8dd4	-1.3715158
227	0x401d3bbb	2.4567707
228	0xbfd5b2f9	-1.6695243
229	0xbfd779fd	-1.6834103
230	0x3ff6a3ef	1.9268779
231	0xbfaa5f87	-1.3310403
232	0x3f9ccb26	1.2249496
233	0xbf2884c3	-0.6582758
234	0xbe93487d	-0.28766242
235	0xbf5c0507	-0.8594517
236	0x3fc45ee5	1.534146
237	0xbffc51b0	-1.9712429
238	0x3f36e09f	0.71436495
239	0xc015231c	-2.330268
240	0xc01e0019	-2.468756
241	0x3f55d48d	0.8352745
242	0xbc17b95b	-0.009260501
243	0xbf2e3173	-0.68044204
244	0x402d8d47	2.711748
245	0xc07a64b5	-3.9123967
246	0x401ca28c	2.447421
247	0xc0d17b24	-6.546282
248	0xbec94435	-0.3930985
249	0x3ff7ba97	1.9353818
250	0x4045a6c4	3.0883036
251	0xbef2eb9c	-0.4744538
252	0xbf2c82c3	-0.67387027
253	0x3ffa2fe8	1.954587
254	0xc064b834	-3.5737429
255	0x3edc289c	0.42999732

lstm.bias_ih_l1 f4 [64]
0	0xbde4a94f	-0.111651056
1	0xc02b8190	-2.6797829
2	0xc00b4cc3	-2.1765602
3	0xbf1907c1	-0.59777457
4	0xc00642a0	-2.0978165
5	0xc00aca9c	-2.1686163
6	0xc03f78eb	-2.9917552
7	0x3e8a85b3	0.2705513
8	0x3e250be9	0.16117825
9	0xc01c957b	-2.4466236
10	0xbefaa44d	-0.48953477
11	0x3f7ec315	0.9951642
12	0xbf7ceb05	-0.9879611
13	0xc0467dea	-3.1014352
14	0xbe62096c	-0.22073907
15	0xbf811e7e	-1.008743
16	0xbf8409cb	-1.0315489
17	0x4010bbe4	2.261468
18	0xc01730e7	-2.3623598
19	0x3f5e95a5	0.8694709
20	0x3f26475d	0.6495264
21	0x3e7a1bac	0.24424618
22	0x3eaae21a	0.33375627
23	0xbfba9bf0	-1.4578838
24	0x403534b5	2.831342
25	0x3f5e622e	0.8686856
26	0xbf8cfa24	-1.1013837
27	0x3f79b182	0.9753648
28	0x3fa9300a	1.3217785
29	0xbe3096e0	-0.17245054
30	0x4006693f	2.1001737
31	0x3f80bd88	1.005784
32	0x3eafbc6b	0.3432344
33	0x3f8e351c	1.1109958
34	0xbe9dc30e	-0.30812877
35	0x3f4cd8fa	0.8001858
36	0xbf63985c	-0.88904357
37	0xbce9f90b	-0.028561136
38	0xc0079a78	-2.118803
39	0xbe3243dc	-0.17408699
40	0xbfe22faa	-1.7670796
41	0x3f491eef	0.78562826
42	0xbe9c5db6	-0.30540246
43	0xbf08e9f1	-0.53481966
44	0x3e3f9956	0.18710837
45	0xbdae04ff	-0.08497047
46	0xbdcf6872	-0.10127343
47	0x4006bb05	2.1051648
48	0xbfbef0c3	-1.4917225
49	0xbec05e10	-0.37571764
50	0xbfd12042	-1.6337969
51	0xbf8f6d20	-1.1205177
52	0xbebff07e	-0.37488168
53	0xbfc1b98e	-1.5134752
54	0xbf8093a7	-1.004506
55	0x3e273bc8	0.16331398
56	0xbe38aebd	-0.18035407
57	0xbf2259be	-0.63418186
58	0xbfe80dee	-1.8129251
59	0xbf17f91f	-0.59364504
60	0xbeb51b9e	-0.35372633
61	0xbf36c08a	-0.7138754
62	0xbfb8b2e2	-1.4429591
63	0xbf401519	-0.7503219

lstm.bias_hh_l1 f4 [64]
0	0xbd9cad44	-0.07650235
1	0xc0186af6	-2.3815284
2	0xc01cc1a8	-2.4493198
3	0xbf0e97ed	-0.5570057
4	0xbffe0473	-1.9845108
5	0xc005f1bf	-2.09288
6	0xc03c36e1	-2.9408495
7	0x3ed9c2f1	0.4253154
8	0xbe43b822	-0.1911321
9	0xc0239549	-2.5559866
10	0xbf232705	-0.63731414
11	0x3f854a44	1.0413289
12	0xbf89d31a	-1.0767548
13	0xc03d0628	-2.9535007
14	0xbe71dabe	-0.236186
15	0xbf6992bd	-0.9123953
16	0xbf3e0903	-0.742325
17	0x40176698	2.3656368
18	0xc010cf5f	-2.262657
19	0x3f41fd11	0.75776774
20	0x3f3013a9	0.6878
21	0x3e9414eb	0.2892221
22	0x3f1802d5	0.5937932
23	0xbfb2a036	-1.3955142
24	0x4034f129	2.8272192
25	0x3f651cd0	0.8949709
26	0xbfaa486b	-1.330335
27	0x3f660bce	0.8986176
28	0x3f97d654	1.1862283
29	0xbead31c5	-0.33827034
30	0x4012c6f2	2.2933927
31	0x3f84ac90	1.0365162
32	0x3ef87b12	0.48531395
33	0x3fad574b	1.3542265
34	0xbe7c264c	-0.24623984
35	0x3f0cad25	0.549517
36	0xbf42e954	-0.7613728
37	0xbe4d9e17	-0.20079838
38	0xc005c7fd	-2.0903313
39	0xbdea237b	-0.114325486
40	0xbfd032c2	-1.626549
41	0x3efd4522	0.49466807
42	0xbec9b01e	-0.3939218
43	0xbe2e37bc	-0.17013448
44	0x3d84c758	0.06483334
45	0x3c91aa35	0.017781356
46	0x3cab614d	0.02092042
47	0x400697bd	2.1030114
48	0xbf9d4095	-1.2285334
49	0xbea1890a	-0.31549865
50	0xbfc476b0	-1.534872
51	0xbfabdf78	-1.3427572
52	0xbeabc006	-0.3354494
53	0xbfd2b514	-1.6461511
54	0xbfa334fb	-1.2750543
55	0xbd46e8f6	-0.048562013
56	0xbdd38bbe	-0.10329388
57	0xbf29c8aa	-0.66321814
58	0xbfdb2730	-1.7121334
59	0xbea3340b	-0.31875643
60	0xbe905286	-0.2818796
61	0xbf4e713a	-0.8064152
62	0xbfd0b604	-1.6305547
63	0xbf8383ee	-1.0274637

fc.weight f4 [1, 16]
0	0x4095912a	4.67397
1	0x40a8e5c7	5.278049
2	0x4087494c	4.2276974
3	0xc0928145	-4.57828
4	0xc092fabf	-4.5931087
5	0x409f807b	4.9844337
6	0xc0a0e34f	-5.0277476
7	0x404fef99	3.2489989
8	0xc0b8d777	-5.776302
9	0xc09673a0	-4.7016144
10	0xc03baf99	-2.9325926
11	0xc08452d6	-4.135112
12	0xc08d28df	-4.411239
13	0x40c76307	6.2308383
14	0x406fcac1	3.74675
15	0x4098452e	4.758445
